rl_anomaly_model.pth (torch, 4760 bytes, 4 tensors)

fc.0.weight f4 [64, 7]
-0.251202 -0.07179704 -0.22912726 -0.35855597 0.087290175 -0.30626234 -0.008555319 -0.20780534
-0.08269578 -0.27597263 0.111993134 -0.13275126 0.3254839 0.10969305 -0.027948946 0.12542334
-0.2829273 -0.022053659 0.14622852 -0.1747986 -0.33034623 0.9038897 0.31844473 1.053713
2.03106 -0.005646086 0.44281563 -0.24804136 -0.31341577 -0.2541204 -0.28910005 -0.10682315
-0.20261802 0.22285584 0.27368262 0.2802283 0.25909215 0.48019564 -1.2954664 0.32516515
-0.7151951 0.32225823 -0.19932103 1.4829199 0.079472005 1.1601193 0.55580693 -0.054447602
-0.38336346 0.124273986 0.12361797 0.5045199 0.67348427 -0.24855545 0.13871855 -0.31118777
0.12560509 1.6607815 -0.22972268 1.2016143 0.2971994 0.2955587 -0.47050723 0.20625214
1.3891584 0.421199 2.2037535 0.0016976111 0.29030776 -0.23560536 0.2638088 -1.1069012
0.49356443 2.5575252 -0.4562793 1.7955607 -0.13743334 -0.17574912 -0.04818281 0.5249454
-1.5213062 -0.10398228 -0.9729157 0.21203779 -0.17274018 0.22448438 0.1194164 -1.6398318
-0.2693742 -0.5257742 0.18502615 0.69970345 1.3128419 0.67290086 2.2078938 -0.0044234027
0.6486871 -0.34433395 0.53588384 0.59212285 0.41947836 0.5693125 0.14250374 0.4395974
0.22621173 0.32413423 -0.05595858 0.00077869627 0.28527996 -0.31340483 -0.18508606 0.21290158
-0.5971738 -0.15114616 -0.760947 -3.0116122 0.13226223 -1.6617709 0.060257275 0.71080196
-0.17867593 1.1130877 -0.043370746 -0.16079059 0.3336844 -0.02642982 -0.35431713 0.09447291
-0.36344972 -0.44029075 -0.36532936 0.07452257 0.12118639 1.0782427 0.05084944 1.2450346
0.39797163 -0.17215902 0.46302128 0.21220213 0.17233516 0.5384884 0.015342192 -1.165437
0.121349365 -0.72826236 0.3508944 1.0536902 -1.0164782 1.1481874 1.7144696 -0.0032552886
0.44061252 -0.2343507 0.4760258 0.29022145 0.02384771 0.4455297 -0.36151078 0.08544467
0.28286138 0.51504445 1.6367812 0.4645198 1.7485048 0.00091823936 0.39655453 -0.25597614
0.06665817 0.15081283 -0.049493343 -0.18044564 0.1700191 -0.31975406 -0.104240716 0.13703623
-0.24544765 -0.28383246 0.18665394 -0.3154882 -0.32857996 0.026439369 0.68315244 -3.2794297
0.5870174 2.901345 -0.17471386 1.8619714 -0.13193816 0.060386717 0.30077383 -0.09478268
-0.106182665 0.06946838 -0.18256307 0.117474705 0.35575286 -0.23318407 -0.3204705 0.038174182
0.12704673 0.33586547 -0.23611853 0.05163297 -0.26988754 -0.09662554 0.038350344 0.18352273
0.26492706 0.1823205 0.83091265 -1.7594723 0.69083184 3.1401312 -0.37698677 1.5062554
-0.13158208 1.1739805 0.69555134 1.2862856 -0.06317544 -0.14431758 0.60425013 -0.016675085
0.36301497 -0.09590319 -0.30409396 0.078605235 0.15043893 0.18120095 0.17752144 0.41818812
-0.08252355 0.1911505 -1.6996629 0.02457948 -0.65853274 0.040356252 -0.3764889 -0.0570513
-0.21249957 -0.22290385 -0.14320323 -0.36959755 -0.317009 0.24651457 -0.04983041 -0.39458203
-0.1629394 0.2791158 -0.08821231 -0.07960436 -0.35070884 -0.20248456 0.35074285 -0.29032105
00000000: 8c9d 80be 540a 93bd 56a0 6abe a694 b7be
00000010: 31c5 b23d 6bce 9cbe 9c2b 0cbc ecca 54be
00000020: 685c a9bd 494c 8dbe a85c e53d f2ef 07be
00000030: d3a5 a63e c0a6 e03d 30f5 e4bc fa6e 003e
00000040: d9db 90be e0a9 b4bc eebc 153e 67fe 32be
00000050: 2423 a9be 5165 673f 300b a33e 11e0 863f
00000060: e3fc 0140 cd02 b9bb bbb8 e23e 8efe 7dbe
00000070: 0878 a0be 121c 82be ec04 94be 18c6 dabd
00000080: 197b 4fbe 5234 643e 2120 8c3e 157a 8f3e
00000090: baa7 843e 34dc f53e d8d1 a5bf 0c7c a63e
000000a0: 0717 37bf 08ff a43e d01a 4cbe 52d0 bd3f
000000b0: 38c2 a23d ca7e 943f 5d49 0e3f 7304 5fbd
000000c0: 3748 c4be 5c83 fe3d 6b2b fd3d 3728 013f
000000d0: 7769 2c3f 5285 7ebe 3c0c 0e3e 0154 9fbe
000000e0: 9f9e 003e 7d94 d43f 6c3c 6bbe 7fce 993f
000000f0: 852a 983e 7853 973e 53e6 f0be c333 533e
00000100: f1cf b13f 65a7 d73e 4c0a 0d40 6082 de3a
00000110: 38a3 943e 8842 71be f211 873e f0ae 8dbf
00000120: 7ab4 fc3e 7eae 2340 719d e9be efd4 e53f
00000130: 53bb 0cbe 94f7 33be 575b 45bd d262 063f
00000140: 29ba c2bf a9f4 d4bd 0111 79bf 6f20 593e
00000150: cde2 30be 3cdf 653e 9690 f43d 02e6 d1bf
00000160: 6aeb 89be 2399 06bf 7f77 3d3e c41f 333f
00000170: 340b a83f 3b43 2c3f 224e 0d40 31f2 90bb
00000180: 5c10 263f 8a4c b0be af2f 093f 5d95 173f
00000190: dec5 d63e 77be 113f 80ec 113e e912 e13e
000001a0: 0ca4 673e ecf4 a53e d334 65bd 6c21 4c3a
000001b0: 3710 923e 9976 a0be 3387 3dbe df02 5a3e
000001c0: 62e0 18bf 0fc6 1abe 6ccd 42bf 41be 40c0
000001d0: c06f 073e e9b4 d4bf 55d0 763d 1ef7 353f
000001e0: d3f6 36be a879 8e3f 86a5 31bd 4aa6 24be
000001f0: afd8 aa3e 5a83 d8bc 0e69 b5be 037b c13d
00000200: 1516 babe ca6d e1be 730c bbbe 4a9f 983d
00000210: 9230 f83d db03 8a3f 8147 503d 4b5d 9f3f
00000220: f0c2 cb3e 744a 30be 2011 ed3e 844b 593e
00000230: a178 303e 60da 093f d15d 7b3c 0a2d 95bf
00000240: 0486 f83d 676f 3abf 6ea8 b33e 52df 863f
00000250: f51b 82bf cef7 923f bd73 db3f ae56 55bb
00000260: f797 e13e a1f9 6fbe a7b9 f33e e897 943e
00000270: 465c c33c 781c e43e f117 b9be 9dfd ae3d
00000280: 35d3 903e f4d9 033f 0c82 d13f 8ad5 ed3e
00000290: 01cf df3f 00b6 703a 3209 cb3e 4e0f 83be
000002a0: 1484 883d ae6e 1a3e 88b9 4abd bec6 38be
000002b0: 7d19 2e3e ceb6 a3be 287c d5bd 3a53 0c3e
000002c0: a156 7bbe 7d52 91be 3622 3f3e ab87 a1be
000002d0: a23b a8be 6097 d83c 14e3 2e3f 2de2 51c0
000002e0: c646 163f a3af 3940 31e8 32be 1455 ee3f
000002f0: cc1a 07be 1058 773d 07ff 993e 6c1d c2bd
00000300: 4c76 d9bd 7045 8e3d d0f1 3abe 9496 f03d
00000310: 3d25 b63e cec7 6ebe b614 a4be 885c 1c3d
00000320: 8a18 023e 8ff6 ab3e 0ec9 71be 187d 533d
00000330: b32e 8abe 9ce3 c5bd 4015 1d3d 62ed 3b3e
00000340: 85a4 873e 3ab2 3a3e b1b6 543f 6336 e1bf
00000350: 5bda 303f e9f7 4840 6904 c1be facc c03f
00000360: 74bd 06be fe44 963f a70f 323f 02a5 a43f
00000370: 2062 81bd fdc7 13be 23b0 1a3f 309a 88bc
00000380: 19dd b93e e468 c4bd 34b2 9bbe c8fb a03d
00000390: aa0c 1a3e be8c 393e 2ec8 353e c11c d63e
000003a0: 1b02 a9bd f5bc 433e 8e8e d9bf e85a c93c
000003b0: 9a95 28bf 994c 253d 27c3 c0be a0ae 69bd
000003c0: 7d99 59be e840 64be dea3 12be e43b bdbe
000003d0: 014f a2be 516e 7c3e f91a 4cbd a806 cabe
000003e0: 96d9 26be 44e8 8e3e a8a8 b4bd 9c07 a3bd
000003f0: 1c90 b3be 1d58 4fbe 9194 b33e f6a4 94be

fc.0.bias f4 [64]
-0.055373076 -0.10958403 -0.25456253 -0.2682195 -0.111251116 1.1898297 -0.320418 0.8482894
-0.22628647 -0.17261031 0.11912137 1.074862 1.184963 -0.2615522 0.97418267 -0.328951
0.8421628 -0.3957931 -0.020296887 -0.5527947 0.94352496 -0.20931508 0.87771684 -0.23331784
-0.30879653 0.011668414 0.09339432 -0.36353707 -0.06753865 -0.16640198 0.041958872 -0.5984827
-0.22543623 0.8857178 -0.02121982 -0.26888365 -0.33746716 -0.32398197 -0.34806174 0.8491187
0.7491981 -0.482982 1.1757073 1.1101693 -0.2887909 0.14359237 -0.17275815 0.9752189
1.0271268 -0.12960817 1.0795366 0.3286269 -0.2693971 -0.25646186 1.0857053 0.84831846
0.9325685 -0.58290166 -0.20446555 0.13023786 1.1829022 0.44698757 -0.063400455 0.60969436
00000000: e1ce 62bd 986d e0bd 0556 82be 1154 89be
00000010: a0d7 e3bd 574c 983f d40d a4be 7e29 593f
00000020: a4b7 67be c2c0 30be e8f5 f33d 1495 893f
00000030: deac 973f 2cea 85be 0964 793f 446c a8be
00000040: fb97 573f 65a5 cabe a845 a6bc f483 0dbf
00000050: da8a 713f b156 56be 0db2 603f dfea 6ebe
00000060: 941a 9ebe e02c 3f3c 8545 bf3d 8821 babe
00000070: b451 8abd 4865 2abe 11dd 2b3d 2a36 19bf
00000080: c1d8 66be 67be 623f 30d5 adbc 1eab 89be
00000090: 7fc8 acbe f7e0 a5be 2635 b2be d85f 593f
000000a0: 72cb 3f3f 6b49 f7be 947d 963f 071a 8e3f
000000b0: 67dc 93be e109 133e 83e7 30be f2a7 793f
000000c0: e478 833f 01b8 04be 412e 8a3f c941 a83e
000000d0: 6bee 89be f84e 83be 64f8 8a3f 662b 593f
000000e0: cfbc 6e3f 0b39 15bf 6b5f 51be 135d 053e
000000f0: 5769 973f 8edb e43e 19d8 81bd ee14 1c3f

fc.2.weight f4 [2, 64]
0.0029034207 -0.11609912 -0.039987132 0.23295073 -0.097301885 0.46183822 0.38834217 0.86090964
0.43053538 0.5303427 0.9471696 0.63940006 0.734674 0.31091067 0.47167584 0.05757661
-0.105685055 -1.3717239 -0.07611886 -1.3635951 0.5883308 0.7826731 0.8583497 0.39372355
-0.031462662 0.0062930435 1.12371 -0.014084831 0.01715976 0.10203116 1.2028041 -1.2660134
0.0613112 0.33439493 0.066819966 -0.0042320467 0.092640504 0.110685274 0.09256481 0.5746423
0.29284993 -1.0635757 0.51878864 0.5099817 -0.11250751 0.6738163 0.10323262 0.5603671
0.85234153 0.045946136 0.38830975 -0.8434051 1.0888083 -0.018037934 0.68215275 0.35036355
0.56177133 -1.2478724 0.3040018 0.6310411 0.6284219 -0.99665624 0.04255645 -0.69014364
0.034887422 -0.061594844 0.0010300279 -1.003576 -0.005818188 0.5162264 -1.1987491 0.53254294
-1.2283196 -1.1151356 -0.80391145 0.82405084 0.78421694 -0.8738588 0.3615484 0.092779435
1.0570074 0.93512094 0.010799885 0.73863995 0.7517191 -1.5936186 0.52284944 -1.096056
0.062665164 -0.09106904 -1.7631955 -0.091205746 0.03332542 -0.05496037 -1.3173653 0.9899967
-0.075772285 0.5248918 0.064204305 0.04730254 0.07460748 -0.020767555 0.06008768 0.31835353
0.93847305 0.6912973 0.5922044 0.62335694 -0.07335088 -0.0681026 0.0053102523 0.7237231
0.56653476 0.07681218 0.51500565 0.61619836 -1.5947806 -0.88184005 0.5665049 0.42396468
0.76987404 1.0391077 -0.8298633 -0.17653583 0.7045655 0.8495077 -0.027999057 1.0697156
00000000: 5147 3e3b 60c5 edbd 8cc9 23bd a38a 6e3e
00000010: 3646 c7bd 0f76 ec3e c9d4 c63e 9364 5c3f
00000020: 226f dc3e 8ac4 073f b579 723f b9af 233f
00000030: 9813 3c3f af2f 9f3e 7f7f f13e 74d5 6b3d
00000040: 6871 d8bd a694 afbf 34e4 9bbd 498a aebf
00000050: d99c 163f 445d 483f cebc 5b3f 2296 c93e
00000060: fede 00bd e035 ce3b bbd5 8f3f 10c4 66bc
00000070: a092 8c3c b6f5 d03d 7cf5 993f ba0c a2bf
00000080: 7421 7b3d d035 ab3e e8d8 883d fbac 8abb
00000090: 4eba bd3d f6ae e23d 9e92 bd3d c21b 133f
000000a0: 6df0 953e 4023 88bf 55cf 043f 298e 023f
000000b0: 566a e6bd 3a7f 2c3f a06b d33d 3874 0f3f
000000c0: 0e33 5a3f 0432 3c3d 89d0 c63e 66e9 57bf
000000d0: 125e 8b3f 4ac4 93bc 90a1 2e3f da62 b33e
000000e0: 3fd0 0f3f 48ba 9fbf 20a6 9b3e e98b 213f
000000f0: 42e0 203f dd24 7fbf ac4f 2e3d 41ad 30bf
00000100: 1de6 0e3d e04a 7cbd 0002 873a 2e75 80bf
00000110: 80a6 bebb 6a27 043f 9c70 99bf bc54 083f
00000120: 9439 9dbf c3bc 8ebf 24cd 4dbf fff4 523f
00000130: 71c2 483f 36b5 5fbf df1c b93e 2503 be3d
00000140: 054c 873f 1664 6f3f 00f2 303c 8217 3d3f
00000150: aa70 403f b2fb cbbf 76d9 053f 904b 8cbf
00000160: 9856 803d 6882 babd 64b0 e1bf 14ca babd
00000170: 3c80 083d 201e 61bd 6d9f a8bf 6c70 7d3f
00000180: 802e 9bbd 4f5f 063f 8c7d 833d 4fc0 413d
00000190: cecb 983d b820 aabc 801e 763d 3cff a23e
000001a0: c53f 703f dcf8 303f b59a 173f 5294 1f3f
000001b0: fc38 96bd 6079 8bbd a001 ae3b eb45 393f
000001c0: 6c08 113f b44f 9d3d 69d7 033f 2dbf 1d3f
000001d0: c521 ccbf 45c0 61bf 7706 113f e611 d93e
000001e0: 7716 453f 7b01 853f ec71 54bf cfc5 34be
000001f0: 685e 343f 5679 593f 475e e5bc 71ec 883f

fc.2.bias f4 [2]
0.4688533 0.45504743
00000000: 8a0d f03e fafb e83e
